…
    1), float32), ''minimap'': Box(0.0, 1.0, (14, 9, 10), float32), ''minimap_sprite'':
    Box(0, 390, (9, 10), int16), ''minimap_warp'': Box(0, 830, (9, 10), int16), ''poke_all'':
    Box(0.0, 1.0, (12, 23), float32), ''poke_ids'': Box(0, 255, (12,), uint8), ''poke_move_ids'':
    Box(0, 255, (12, 4), uint8), ''poke_move_pps'': Box(0.0, 1.0, (12, 4, 2), float32),
    ''poke_type_ids'': Box(0, 255, (12, 2), uint8), ''vector'': Box(-1.0, 1.0, (99,),
    float32))'
policy:
  desc: null
  value: "MultiInputActorCriticPolicy(\n  (features_extractor): CustomCombinedExtractorV2(\n\
    \    (cnn): Sequential(\n      (0): Conv2d(3, 64, kernel_size=(8, 8), stride=(4,\
    \ 4), padding=(2, 0))\n      (1): ReLU()\n      (2): AdaptiveMaxPool2d(output_size=(9,\
    \ 9))\n      (3): Conv2d(64, 128, kernel_size=(4, 4), stride=(2, 2), padding=(2,\
    \ 2))\n      (4): ReLU()\n      (5): Conv2d(128, 128, kernel_size=(3, 3), stride=(1,\
    \ 1))\n      (6): ReLU()\n      (7): Flatten(start_dim=1, end_dim=-1)\n    )\n\
    \    (cnn_linear): Sequential(\n      (0): Linear(in_features=1152, out_features=512,\
    \ bias=True)\n      (1): ReLU()\n    )\n    (minimap_sprite_embedding): Embedding(390,\
    \ 8, padding_idx=0)\n    (minimap_warp_embedding): Embedding(830, 8, padding_idx=0)\n\
    \    (minimap_cnn): Sequential(\n      (0): Conv2d(30, 64, kernel_size=(4, 4),\
    \ stride=(1, 1))\n      (1): ReLU()\n      (2): Conv2d(64, 128, kernel_size=(4,\
    \ 4), stride=(1, 1))\n      (3): ReLU()\n      (4): Conv2d(128, 256, kernel_size=(3,\
    \ 3), stride=(1, 1))\n      (5): ReLU()\n      (6): Flatten(start_dim=1, end_dim=-1)\n\
    \    )\n    (minimap_cnn_linear): Sequential(\n      (0): Linear(in_features=512,\
    \ out_features=512, bias=True)\n      (1): ReLU()\n    )\n    (poke_move_ids_embedding):\
    \ Embedding(167, 8, padding_idx=0)\n    (move_fc_relu): Sequential(\n      (0):\
    \ Linear(in_features=10, out_features=8, bias=True)\n      (1): ReLU()\n     \
    \ (2): Linear(in_features=8, out_features=8, bias=True)\n      (3): ReLU()\n \
    \   )\n    (move_max_pool): AdaptiveMaxPool2d(output_size=(1, 16))\n    (poke_type_ids_embedding):\
    \ Embedding(17, 8, padding_idx=0)\n    (poke_ids_embedding): Embedding(192, 16,\
    \ padding_idx=0)\n    (poke_fc_relu): Sequential(\n      (0): Linear(in_features=63,\
    \ out_features=64, bias=True)\n      (1): ReLU()\n      (2): Linear(in_features=64,\
    \ out_features=64, bias=True)\n      (3): ReLU()\n    )\n    (poke_party_head):\
    \ Sequential(\n      (0): Linear(in_features=64, out_features=64, bias=True)\n\
    \      (1): ReLU()\n      (2): Linear(in_features=64, out_features=64, bias=True)\n\
    \    )\n    (poke_party_head_max_pool): AdaptiveMaxPool2d(output_size=(1, 64))\n\
    \    (poke_opp_head): Sequential(\n      (0): Linear(in_features=64, out_features=64,\
    \ bias=True)\n      (1): ReLU()\n      (2): Linear(in_features=64, out_features=64,\
    \ bias=True)\n    )\n    (poke_opp_head_max_pool): AdaptiveMaxPool2d(output_size=(1,\
    \ 64))\n    (item_ids_embedding): Embedding(256, 32, padding_idx=0)\n    (item_ids_fc_relu):\
    \ Sequential(\n      (0): Linear(in_features=33, out_features=32, bias=True)\n\
    \      (1): ReLU()\n      (2): Linear(in_features=32, out_features=32, bias=True)\n\
    \      (3): ReLU()\n    )\n    (item_ids_max_pool): AdaptiveMaxPool2d(output_size=(1,\
    \ 32))\n    (event_ids_embedding): Embedding(2570, 64, padding_idx=0)\n    (event_ids_fc_relu):\
    \ Sequential(\n      (0): Linear(in_features=65, out_features=64, bias=True)\n\
    \      (1): ReLU()\n      (2): Linear(in_features=64, out_features=64, bias=True)\n\
    \      (3): ReLU()\n    )\n    (event_ids_max_pool): AdaptiveMaxPool2d(output_size=(1,\
    \ 64))\n    (map_ids_embedding): Embedding(256, 32, padding_idx=0)\n    (map_ids_fc_relu):\
    \ Sequential(\n      (0): Linear(in_features=33, out_features=32, bias=True)\n\
    \      (1): ReLU()\n      (2): Linear(in_features=32, out_features=32, bias=True)\n\
    \      (3): ReLU()\n    )\n    (map_ids_max_pool): AdaptiveMaxPool2d(output_size=(1,\
    \ 32))\n  )\n  (pi_features_extractor): CustomCombinedExtractorV2(\n    (cnn):\
    \ Sequential(\n      (0): Conv2d(3, 64, kernel_size=(8, 8), stride=(4, 4), padding=(2,\
    \ 0))\n      (1): ReLU()\n      (2): AdaptiveMaxPool2d(output_size=(9, 9))\n \
    \     (3): Conv2d(64, 128, kernel_size=(4, 4), stride=(2, 2), padding=(2, 2))\n\
    \      (4): ReLU()\n      (5): Conv2d(128, 128, kernel_size=(3, 3), stride=(1,\
    \ 1))\n      (6): ReLU()\n      (7): Flatten(start_dim=1, end_dim=-1)\n    )\n\
    \    (cnn_linear): Sequential(\n      (0): Linear(in_features=1152, out_features=512,\
    \ bias=True)\n      (1): ReLU()\n    )\n    (minimap_sprite_embedding): Embedding(390,\
    \ 8, padding_idx=0)\n    (minimap_warp_embedding): Embedding(830, 8, padding_idx=0)\n\
    \    (minimap_cnn): Sequential(\n      (0): Conv2d(30, 64, kernel_size=(4, 4),\
    \ stride=(1, 1))\n      (1): ReLU()\n      (2): Conv2d(64, 128, kernel_size=(4,\
    \ 4), stride=(1, 1))\n      (3): ReLU()\n      (4): Conv2d(128, 256, kernel_size=(3,\
    \ 3), stride=(1, 1))\n      (5): ReLU()\n      (6): Flatten(start_dim=1, end_dim=-1)\n\
    \    )\n    (minimap_cnn_linear): Sequential(\n      (0): Linear(in_features=512,\
    \ out_features=512, bias=True)\n      (1): ReLU()\n    )\n    (poke_move_ids_embedding):\
    \ Embedding(167, 8, padding_idx=0)\n    (move_fc_relu): Sequential(\n      (0):\
    \ Linear(in_features=10, out_features=8, bias=True)\n      (1): ReLU()\n     \
    \ (2): Linear(in_features=8, out_features=8, bias=True)\n      (3): ReLU()\n \
    \   )\n    (move_max_pool): AdaptiveMaxPool2d(output_size=(1, 16))\n    (poke_type_ids_embedding):\
    \ Embedding(17, 8, padding_idx=0)\n    (poke_ids_embedding): Embedding(192, 16,\
    \ padding_idx=0)\n    (poke_fc_relu): Sequential(\n      (0): Linear(in_features=63,\
    \ out_features=64, bias=True)\n      (1): ReLU()\n      (2): Linear(in_features=64,\
    \ out_features=64, bias=True)\n      (3): ReLU()\n    )\n    (poke_party_head):\
    \ Sequential(\n      (0): Linear(in_features=64, out_features=64, bias=True)\n\
    \      (1): ReLU()\n      (2): Linear(in_features=64, out_features=64, bias=True)\n\
    \    )\n    (poke_party_head_max_pool): AdaptiveMaxPool2d(output_size=(1, 64))\n\
    \    (poke_opp_head): Sequential(\n      (0): Linear(in_features=64, out_features=64,\
    \ bias=True)\n      (1): ReLU()\n      (2): Linear(in_features=64, out_features=64,\
    \ bias=True)\n    )\n    (poke_opp_head_max_pool): AdaptiveMaxPool2d(output_size=(1,\
    \ 64))\n    (item_ids_embedding): Embedding(256, 32, padding_idx=0)\n    (item_ids_fc_relu):\
    \ Sequential(\n      (0): Linear(in_features=33, out_features=32, bias=True)\n\
    \      (1): ReLU()\n      (2): Linear(in_features=32, out_features=32, bias=True)\n\
    \      (3): ReLU()\n    )\n    (item_ids_max_pool): AdaptiveMaxPool2d(output_size=(1,\
    \ 32))\n    (event_ids_embedding): Embedding(2570, 64, padding_idx=0)\n    (event_ids_fc_relu):\
    \ Sequential(\n      (0): Linear(in_features=65, out_features=64, bias=True)\n\
    \      (1): ReLU()\n      (2): Linear(in_features=64, out_features=64, bias=True)\n\
    \      (3): ReLU()\n    )\n    (event_ids_max_pool): AdaptiveMaxPool2d(output_size=(1,\
    \ 64))\n    (map_ids_embedding): Embedding(256, 32, padding_idx=0)\n    (map_ids_fc_relu):\
    \ Sequential(\n      (0): Linear(in_features=33, out_features=32, bias=True)\n\
    \      (1): ReLU()\n      (2): Linear(in_features=32, out_features=32, bias=True)\n\
    \      (3): ReLU()\n    )\n    (map_ids_max_pool): AdaptiveMaxPool2d(output_size=(1,\
    \ 32))\n  )\n  (vf_features_extractor): CustomCombinedExtractorV2(\n    (cnn):\
    \ Sequential(\n      (0): Conv2d(3, 64, kernel_size=(8, 8), stride=(4, 4), padding=(2,\
    \ 0))\n      (1): ReLU()\n      (2): AdaptiveMaxPool2d(output_size=(9, 9))\n \
    \     (3): Conv2d(64, 128, kernel_size=(4, 4), stride=(2, 2), padding=(2, 2))\n\
    \      (4): ReLU()\n      (5): Conv2d(128, 128, kernel_size=(3, 3), stride=(1,\
    \ 1))\n      (6): ReLU()\n      (7): Flatten(start_dim=1, end_dim=-1)\n    )\n\
    \    (cnn_linear): Sequential(\n      (0): Linear(in_features=1152, out_features=512,\
    \ bias=True)\n      (1): ReLU()\n    )\n    (minimap_sprite_embedding): Embedding(390,\
    \ 8, padding_idx=0)\n    (minimap_warp_embedding): Embedding(830, 8, padding_idx=0)\n\
    \    (minimap_cnn): Sequential(\n      (0): Conv2d(30, 64, kernel_size=(4, 4),\
    \ stride=(1, 1))\n      (1): ReLU()\n      (2): Conv2d(64, 128, kernel_size=(4,\
    \ 4), stride=(1, 1))\n      (3): ReLU()\n      (4): Conv2d(128, 256, kernel_size=(3,\
    \ 3), stride=(1, 1))\n      (5): ReLU()\n      (6): Flatten(start_dim=1, end_dim=-1)\n\
    \    )\n    (minimap_cnn_linear): Sequential(\n      (0): Linear(in_features=512,\
    \ out_features=512, bias=True)\n      (1): ReLU()\n    )\n    (poke_move_ids_embedding):\
    \ Embedding(167, 8, padding_idx=0)\n    (move_fc_relu): Sequential(\n      (0):\
    \ Linear(in_features=10, out_features=8, bias=True)\n      (1): ReLU()\n     \
    \ (2): Linear(in_features=8, out_features=8, bias=True)\n      (3): ReLU()\n \
    \   )\n    (move_max_pool): AdaptiveMaxPool2d(output_size=(1, 16))\n    (poke_type_ids_embedding):\
    \ Embedding(17, 8, padding_idx=0)\n    (poke_ids_embedding): Embedding(192, 16,\
    \ padding_idx=0)\n    (poke_fc_relu): Sequential(\n      (0): Linear(in_features=63,\
    \ out_features=64, bias=True)\n      (1): ReLU()\n      (2): Linear(in_features=64,\
    \ out_features=64, bias=True)\n      (3): ReLU()\n    )\n    (poke_party_head):\
    \ Sequential(\n      (0): Linear(in_features=64, out_features=64, bias=True)\n\
    \      (1): ReLU()\n      (2): Linear(in_features=64, out_features=64, bias=True)\n\
    \    )\n    (poke_party_head_max_pool): AdaptiveMaxPool2d(output_size=(1, 64))\n\
    \    (poke_opp_head): Sequential(\n      (0): Linear(in_features=64, out_features=64,\
    \ bias=True)\n      (1): ReLU()\n      (2): Linear(in_features=64, out_features=64,\
    \ bias=True)\n    )\n    (poke_opp_head_max_pool): AdaptiveMaxPool2d(output_size=(1,\
    \ 64))\n    (item_ids_embedding): Embedding(256, 32, padding_idx=0)\n    (item_ids_fc_relu):\
    \ Sequential(\n      (0): Linear(in_features=33, out_features=32, bias=True)\n\
    \      (1): ReLU()\n      (2): Linear(in_features=32, out_features=32, bias=True)\n\
    \      (3): ReLU()\n    )\n    (item_ids_max_pool): AdaptiveMaxPool2d(output_size=(1,\
    \ 32))\n    (event_ids_embedding): Embedding(2570, 64, padding_idx=0)\n    (event_ids_fc_relu):\
    \ Sequential(\n      (0): Linear(in_features=65, out_features=64, bias=True)\n\
    \      (1): ReLU()\n      (2): Linear(in_features=64, out_features=64, bias=True)\n\
    \      (3): ReLU()\n    )\n    (event_ids_max_pool): AdaptiveMaxPool2d(output_size=(1,\
    \ 64))\n    (map_ids_embedding): Embedding(256, 32, padding_idx=0)\n    (map_ids_fc_relu):\
    \ Sequential(\n      (0): Linear(in_features=33, out_features=32, bias=True)\n\
    \      (1): ReLU()\n      (2): Linear(in_features=32, out_features=32, bias=True)\n\
    \      (3): ReLU()\n    )\n    (map_ids_max_pool): AdaptiveMaxPool2d(output_size=(1,\
    \ 32))\n  )\n  (mlp_extractor): MlpExtractor(\n    (policy_net): Sequential(\n\
    \      (0): Linear(in_features=1379, out_features=1024, bias=True)\n      (1):\
    \ ReLU()\n      (2): Linear(in_features=1024, out_features=1024, bias=True)\n\
    \      (3): ReLU()\n    )\n    (value_net): Sequential(\n      (0): Linear(in_features=1379,\
    \ out_features=1024, bias=True)\n      (1): ReLU()\n      (2): Linear(in_features=1024,\
    \ out_features=1024, bias=True)\n      (3): ReLU()\n    )\n  )\n  (action_net):\
    \ Linear(in_features=1024, out_features=8, bias=True)\n  (value_net): Linear(in_features=1024,\
    \ out_features=1, bias=True)\n)"
policy_class:
  desc: null
  value: <class 'stable_baselines3.common.policies.MultiInputActorCriticPolicy'>
policy_kwargs:
  desc: null
  value: '{''features_extractor_class'': <class ''custom_network.CustomCombinedExtractorV2''>,
    ''share_features_extractor'': True, ''net_arch'': [1024, 1024], ''activation_fn'':
    <class ''torch.nn.modules.activation.ReLU''>}'
…
